model/model.pth (torch, 17609 bytes, 4 tensors)

linear1.weight f4 [256, 11]
000000 f3 f2 27 3e 75 f8 89 3f 48 f9 ce be d3 46 15 bf
       0.16401272 1.0778948 -0.40424562 -0.58311194
000010 11 29 19 be 3c cd 87 be 73 f4 62 bd 3d 1e 2a be
       -0.14957072 -0.2652377 -0.055408906 -0.16613097
000020 04 27 60 be 72 d3 fe 3e 1f 20 ab bd e5 2e b8 be
       -0.21889883 0.49770695 -0.08355736 -0.35973278
000030 5e fa 8b 3e bb 31 ad 3d fa 38 b4 be 0b 44 df 3e
       0.27339453 0.08456751 -0.3519972 0.436066
000040 d2 59 b3 be 98 8c 2e 3f e5 0d bc 3e b1 6e 2a bf
       -0.35029465 0.6818328 0.3672935 -0.6657515
000050 7d aa a9 bf 36 4b 78 bf 19 ed 27 bc b5 ba 92 3e
       -1.3255154 -0.9698976 -0.0102494 0.2865807
000060 00 0f 29 3d 9d 10 bc 3e f8 e2 14 bf fb 1e a5 be
       0.04127407 0.36731425 -0.58158827 -0.322502
000070 ee ef 0c bf 79 93 a1 be af 94 fb 3e 51 d8 9f 3d
       -0.55053604 -0.31557825 0.49136874 0.07804931
000080 72 a7 d8 be 9f 01 f2 3e 9e 31 50 3f 3e c4 4e 3f
       -0.4231525 0.47266862 0.8132571 0.8076819
000090 79 dc 01 bf d1 4b 1a bf b7 0d a4 be 6d 12 2b bf
       -0.5072704 -0.60271937 -0.32041714 -0.6682499
0000a0 27 6c 9b be 8b 92 90 be 89 81 a2 be fc 99 81 be
       -0.3035595 -0.28236803 -0.31739452 -0.25312793
0000b0 de e5 9e be f7 ec c9 3e b4 ac 3d bf e8 a0 3b bf
       -0.3103475 0.39438602 -0.7409165 -0.732924
0000c0 a4 a7 24 3d c6 6a ca 3d c6 a2 8c bc 6e 82 69 bf
       0.040198937 0.09883647 -0.01716746 -0.91214645
0000d0 3a d2 19 bf f4 05 15 bf 4a 2d 25 bf 75 0b 0f 3f
       -0.60086405 -0.5821221 -0.6452223 0.5587686
0000e0 50 e4 41 bf d7 1e 07 3f 9d 7e 27 3e 56 54 df 3d
       -0.75739 0.5278143 0.16356893 0.10904758
0000f0 75 6e 12 3e 83 4a 40 3e ae c1 0e bd f8 ee 24 3e
       0.14299949 0.18778424 -0.034852676 0.16106784
000100 1a e1 89 3b ee de 8c 3d f8 12 ff be 1b 88 1a 3e
       0.0042077424 0.06878458 -0.4981916 0.15090983
000110 3a d2 f4 3d 1d b4 5f be 31 0c 82 bd a1 b2 07 be
       0.1195416 -0.21846052 -0.063499816 -0.13251735
000120 a6 e1 96 bd d8 c0 22 be 8c 04 40 be 8e 60 8b bd
       -0.07367258 -0.15893877 -0.18751734 -0.06805526
000130 68 9f a2 bd a8 53 c0 3e 32 11 95 be e2 ee 87 3e
       -0.079405606 0.37563825 -0.2911468 0.2654944
000140 39 26 8d be 21 ca 07 bf e9 2b fb 3e 01 9c aa 3e
       -0.27568224 -0.530428 0.49056938 0.33322147
000150 3d ae 72 3e f0 90 07 3f 1a 2e 57 bf e1 74 3c bf
       0.23699279 0.5295553 -0.8405472 -0.73615843
000160 f6 98 97 3e 4e ab 1b 3f 24 dd 16 3f 76 b9 37 be
       0.29608887 0.60808265 0.58931184 -0.17941841
000170 67 d5 10 bf 90 99 d5 be f1 36 cf be 50 94 27 be
       -0.56575626 -0.4171872 -0.40471604 -0.1636517
000180 6b bb 52 3d 49 04 4e 3d a0 58 c1 b9 f3 2d 53 bd
       0.051448267 0.050297055 -0.0003687786 -0.051557492
000190 0d 00 a7 3d 2a 85 a7 bd 6a 35 11 bf 87 9a 77 3e
       0.081543066 -0.08179696 -0.5672213 0.24180041
0001a0 ab c4 85 3e d8 d6 10 bf d0 87 66 bf 69 2d 6a bf
       0.26126608 -0.56577826 -0.90050983 -0.9147554
0001b0 04 a8 d4 bd cb e8 2f 3f fc 70 f5 3c ad f8 6c 3e
       -0.10383609 0.6871459 0.029961102 0.23141737
0001c0 f3 36 f3 3d 6b bd a7 be 0e 9b af be 8f 32 e2 bd
       0.11875715 -0.32761702 -0.34297985 -0.110447995
0001d0 96 1a 8f bd 4e 70 16 be 94 75 3d be 3c 4b 0d bd
       -0.06987493 -0.14691278 -0.18501884 -0.034495577
0001e0 89 53 74 be 93 95 fe 3c 67 5a be 3f 25 83 9d be
       -0.23859991 0.031077182 1.4871339 -0.30764118
0001f0 f6 36 23 3e de e4 f4 be 0c 20 e6 be 26 c6 33 3d
       0.15938935 -0.47830862 -0.44946325 0.04389014
000200 ec c9 fb be 65 dc 1b bf 30 86 3e be 27 34 04 3f
       -0.49177492 -0.6088317 -0.18605876 0.5164208
000210 ac 96 af bc 75 2e 16 be d5 c9 d6 3b 93 f4 c7 be
       -0.02143415 -0.1466616 0.006554822 -0.39053783
000220 db 90 28 bd 88 5b ce be 42 36 5f bd 65 87 17 3e
       -0.04115377 -0.40304208 -0.054495104 0.14797743
000230 9b 13 16 be 85 5d 12 3d 25 87 a3 be 98 1c cf 3d
       -0.14655916 0.03573372 -0.31939045 0.10112876
000240 41 8d 0e bf c6 fa ab 3c b6 da 3a bd 61 df 94 be
       -0.55684286 0.020993602 -0.045618735 -0.29076675
000250 68 ba 28 be 73 6f 51 be f1 fb e9 bd ab bc c5 3d
       -0.16477358 -0.20452671 -0.11425007 0.09655126
000260 6e 10 5b 3d 96 12 8e be 53 21 64 3e 1b 22 53 bf
       0.053482465 -0.27748555 0.22278337 -0.82473916
000270 64 9b 05 be ae 79 12 3e 28 2a 25 bf 04 cf d6 3d
       -0.13047558 0.1430423 -0.6451745 0.10488704
000280 f8 d9 37 bf c7 47 86 be cf 3b 73 bf a0 34 2e 3d
       -0.7181697 -0.26226637 -0.95013136 0.042530656
000290 85 4b 5f bf cd ec c9 3d 12 14 43 bf 8e 97 f7 3e
       -0.8722461 0.09859619 -0.762025 0.48357815
0002a0 b9 76 1a be fe 22 47 be 13 e9 9d be f4 63 42 be
       -0.15084352 -0.19446942 -0.30841884 -0.18983442
0002b0 6e f5 a3 be f6 84 9f be 4e 51 6c be 56 c2 a0 be
       -0.32023185 -0.3115613 -0.2307789 -0.31398267
0002c0 87 80 c1 be 5d 3e ef bd 76 cc dd be cd e2 14 be
       -0.3779337 -0.11681817 -0.43320054 -0.14539643
0002d0 1f 7c 16 be 07 15 eb bd 1e 1d ba be 98 e8 0d 3e
       -0.14695786 -0.1147862 -0.3635034 0.13858259
0002e0 80 e8 f6 3c 8b 27 04 3d a9 ae 13 3e de 44 3e 3e
       0.030140162 0.032264274 0.14422096 0.18580958
0002f0 fd d0 83 bf 5d 28 ad 3e b4 fd 61 be 00 28 ae 3e
       -1.0298153 0.33819857 -0.22069436 0.34014893
000300 be ef 1f bd 01 15 f8 3e d5 d5 4b 3e bd 88 8f be
       -0.039046995 0.48453525 0.19905789 -0.2803401
000310 cc 73 d2 3d 1d 4f 33 bf 8d 30 6e 3d 41 2e c2 3d
       0.10275993 -0.7004259 0.05815177 0.094814785
000320 f9 e6 3c bf 1f 8b 51 3f b5 83 ad be da db b4 bd
       -0.73789936 0.81852907 -0.33889547 -0.08830996
000330 3d 2a 90 be fc 41 99 be 8b 77 31 3f 99 f2 47 bf
       -0.28157225 -0.29933155 0.69323033 -0.7810455
000340 f5 0c 3e bf bf dd 34 bd 82 f9 62 be 86 da a7 3d
       -0.7423852 -0.044156786 -0.22165492 0.08195977
000350 33 95 cc be fb 25 44 bd c3 d3 e9 bd eb 58 f5 bd
       -0.3995758 -0.047887783 -0.114173435 -0.119798504
000360 a9 47 81 bd 4a 38 82 bd 4c a2 df 3d 6c a1 e0 3d
       -0.06312496 -0.063583925 0.109196275 0.10968289
000370 9c 8a 04 be 8a c6 2d be 90 64 be 3e 07 19 b6 be
       -0.129435 -0.16970268 0.37186098 -0.3556597
000380 b4 fb 66 be d0 25 72 bf 43 76 3a 3c ef bb 7c be
       -0.22556955 -0.9458895 0.011380735 -0.24681066
000390 a3 de bd be 98 f9 10 be d8 94 07 bf 7a 3a 0b 3f
       -0.3708392 -0.14157712 -0.5296149 0.54386103
0003a0 24 42 5b bf 0a e9 c2 3e 16 c0 8c 3e 09 ce 89 bd
       -0.856478 0.3806842 0.274903 -0.06728751
0003b0 fc 3f bf be c3 ff 42 bd 4e dc 1c bc e6 a8 c7 be
       -0.37353504 -0.047607195 -0.009574009 -0.38996047
0003c0 ad db 36 bd f9 af 65 bd 11 c2 d4 3e 9f f2 35 3e
       -0.044643093 -0.056076024 0.4155431 0.17768334
0003d0 76 4a 86 3e e1 c3 f0 be 86 13 f9 3e 2a d6 49 3f
       0.26228684 -0.47024444 0.48647708 0.78842413
0003e0 84 14 b5 be 74 aa 47 3f eb 14 37 be 7c 44 01 bf
       -0.35367215 0.77994466 -0.17879073 -0.50495124
0003f0 72 83 35 3f bf 46 d5 3e ff a8 ca 3e 93 62 8e 3e
       0.70903695 0.41655537 0.3958206 0.2780958

linear1.bias f4 [256]
000000 e0 da 00 3d 48 96 76 be d0 f7 0e bf f3 50 e0 be
       0.031458735 -0.24080765 -0.5584688 -0.4381176
000010 09 40 0c 3e 1a 0b 33 bf a0 18 6b be 76 be 78 bd
       0.13696302 -0.69938815 -0.22958612 -0.060728513
000020 6a b2 33 bf 68 99 6c be a9 01 a2 be 3e 33 79 3e
       -0.70194113 -0.23105395 -0.31641892 0.24335954
000030 ad 1b 1a be 57 df a0 be d2 06 61 3e ab de ad be
       -0.1504962 -0.31420395 0.21975258 -0.33958945
000040 2c 57 32 be d8 c9 38 be 92 1b cb be 1d 58 1b be
       -0.17416066 -0.18045747 -0.39669472 -0.15170331
000050 76 35 ad be 45 62 19 bf 7b df 0e bf 04 8c 03 bf
       -0.3382985 -0.5991557 -0.55809754 -0.5138552
000060 ea 4a b2 be 7e d0 a0 be 2f 18 27 3f 1a f1 fb be
       -0.3482278 -0.31409067 0.65271276 -0.49207383
000070 84 54 d8 be 46 dd 1b bf 9f 64 f6 be e0 9f 99 be
       -0.4225198 -0.6088451 -0.48123643 -0.30004787
000080 0c 54 86 be 5b 67 8e be 8b c2 a8 be 93 54 cb bd
       -0.26235998 -0.2781323 -0.32960925 -0.099282406
000090 04 cb 47 be cc 01 39 bf 69 65 80 be e3 a5 a2 bb
       -0.19511038 -0.72268367 -0.2507737 -0.004963623
0000a0 c0 a7 31 3f da a7 68 be 62 b0 be be 70 18 25 bf
       0.6939659 -0.2272028 -0.37243944 -0.64490414
0000b0 36 73 05 3c a3 e4 d3 bd 8d 0f ba 3e 98 76 62 3e
       0.008145144 -0.10346343 0.3633999 0.22115552
0000c0 8d 13 62 3e 49 bc 15 bf 35 37 2b 40 8a b7 35 bf
       0.2207777 -0.58490425 2.6752446 -0.70983183
0000d0 d8 ac cb 3c 1f 88 41 bf 8c d8 13 3f df c8 3f be
       0.024862692 -0.7559833 0.577523 -0.1872897
0000e0 0e f1 35 be 4e 63 90 3d f4 cb 40 bc 5b 1f d9 3e
       -0.17767736 0.07050191 -0.011767376 0.42406735
0000f0 cb 46 36 3e 63 a7 b8 be a2 06 a0 3f a5 74 1c be
       0.17800443 -0.36065206 1.2502024 -0.15278871
000100 23 e8 da be e0 ae 36 bf 8a c8 b0 be 83 ad a1 be
       -0.4275523 -0.7136059 -0.34528 -0.3157769
000110 17 bb b2 be 6e 8b 8f bd f6 a0 7f be d7 47 6f bf
       -0.34908363 -0.07009016 -0.24963745 -0.93468994
000120 07 cf d0 be 74 b7 88 bd 23 a4 26 bf cb 8a c2 be
       -0.4078295 -0.06675616 -0.650942 -0.37996516
000130 a1 f9 2f bd 67 c3 cb be d4 b3 21 bd c2 40 ae be
       -0.042962674 -0.39797518 -0.039478138 -0.3403378
000140 5a 69 a1 be 9c 5c 17 be bf 77 b7 3d 58 50 f2 3d
       -0.3152569 -0.14781421 0.08958387 0.118317306
000150 3d 5c 60 bf 30 06 68 3f 3d 9c a5 be 61 ad 95 3e
       -0.87640744 0.9063444 -0.32345763 0.2923384
000160 d4 12 32 be 05 1a ef bd fa 3f 9b 3d 69 3d eb be
       -0.17389995 -0.11674885 0.07580562 -0.4594529
000170 e8 c2 b5 be 82 ba 1c 3f 6b f5 35 3f 02 d4 ec bd
       -0.35500264 0.6122209 0.71077603 -0.11563875
000180 dc b5 cc be b7 a3 94 3f 57 4a 1a bf 8e a1 2d be
       -0.39982498 1.1612462 -0.60269684 -0.1695616
000190 82 a6 aa be 68 38 65 3e 99 e0 1a bf cc c3 c8 be
       -0.3333016 0.22384799 -0.6049896 -0.3921188
0001a0 f1 9b e5 be d1 3f 31 bf 85 39 cf 3e 2c 11 74 bf
       -0.44845536 -0.69238 0.4047357 -0.953387
0001b0 ed cf ab be a6 ac 21 3e e0 91 c9 be 26 99 4c be
       -0.33557072 0.15788516 -0.39369106 -0.19980296
0001c0 5a 93 8e be c8 af 81 bc ef 69 a2 bd e1 6a af 3d
       -0.27846795 -0.01583089 -0.079303615 0.085653074
0001d0 ad 40 25 bf 2a 56 05 bf 74 6e 8c be 86 c4 2b be
       -0.6455181 -0.520846 -0.2742802 -0.16774186
0001e0 b0 09 67 3d b5 c9 09 be 64 f5 d6 be 5f 59 3f be
       0.056405723 -0.13455851 -0.41984093 -0.18686436
0001f0 3d 9d d2 be 63 ff 9e be 54 b4 b4 3d 08 01 1d be
       -0.41135588 -0.3105422 0.08823457 -0.15332425
000200 ad a8 45 3e 15 a6 1c bf 04 a0 45 bf 1c 63 bc 3e
       0.19302626 -0.6119092 -0.7719729 0.36794364
000210 a7 01 97 3d c6 b2 03 bf 52 b0 9f be 31 83 09 be
       0.07373362 -0.5144466 -0.3118921 -0.13428952
000220 25 5f 49 be aa 2f 69 3d 45 4f 38 3e 33 7c 0b bf
       -0.19665201 0.05693022 0.17998989 -0.5448639
000230 a7 75 22 bf 48 69 07 be 3d bc 18 be 2a 86 91 be
       -0.63460773 -0.13223755 -0.14915557 -0.28422672
000240 c9 14 48 bf dc e6 95 be fa ac 92 be 1c 94 8b be
       -0.78156716 -0.29277694 -0.28647596 -0.27261436
000250 7c b3 5c be 35 c3 bf 3d 0f 3f 16 bf b4 a4 2e bf
       -0.21552843 0.09363405 -0.5868997 -0.6822007
000260 e0 d3 92 be 2f 57 a1 3e 39 1e 8a be 1d 1d 48 be
       -0.28677273 0.31511828 -0.26976183 -0.19542356
000270 7a 98 56 bf 1a 87 f1 bd af 2e 81 be a3 49 53 be
       -0.8382641 -0.11793347 -0.2523093 -0.20633559
000280 ea a2 22 bf 2e 35 0d bf fb 74 11 be 45 48 12 bf
       -0.6352984 -0.5515927 -0.14204781 -0.57141525
000290 d6 4a 49 3f a6 94 c0 be c7 52 85 be e9 2d 4c be
       0.78629816 -0.3761341 -0.26039717 -0.19939388
0002a0 2e 40 df bd 37 80 da 3e f8 25 02 3f ca 47 20 bf
       -0.10900913 0.42675945 0.50839186 -0.6260954
0002b0 c4 86 f4 be 39 46 23 bf 51 d7 fe 3d a6 4a a6 bd
       -0.47759068 -0.63779026 0.12443412 -0.08119707
0002c0 b3 2d 23 be 57 c9 1b 40 62 c6 ed 3d ac 96 77 bf
       -0.15935402 2.4341638 0.11610104 -0.9671428
0002d0 e9 d6 22 bf e8 ac 63 bf 29 cd 1d bf e4 c4 65 be
       -0.63609177 -0.8893571 -0.61641175 -0.22438389
0002e0 68 6a 34 be 8c 12 18 be 4d ad 2a 3e 0b 27 e5 be
       -0.17618716 -0.14850825 0.16667672 -0.4475635
0002f0 38 d5 43 bf 2e 00 ea be a0 5c e5 be 4e 0c 88 be
       -0.7649722 -0.45703262 -0.4479723 -0.26571888
000300 0a 05 44 bd 5e 1e d6 be c4 c3 5b bf e1 52 af be
       -0.047856368 -0.41820043 -0.8584559 -0.3424292
000310 5f 06 d7 be a0 26 8f be 65 f4 b5 be 2b 62 a6 be
       -0.41997048 -0.27959156 -0.3553802 -0.3249677
000320 f8 dd f5 be db 71 af 3e cf 11 2d be ed 52 9c be
       -0.4802091 0.34266552 -0.16901325 -0.30532017
000330 4b cd fa be 3b ed 1f 3e 73 e0 bc 3b aa e1 03 bf
       -0.4898475 0.1561784 0.005764061 -0.5151621
000340 1c 8a c1 be 72 d2 91 bc 95 b2 b2 be 4d 35 3f bf
       -0.37800682 -0.017800543 -0.34901872 -0.74690706
000350 cf 1d 77 3d 1e 65 f3 3e 38 f2 47 3e ba 81 c8 be
       0.060331162 0.47538084 0.19525993 -0.39161474
000360 94 ef 30 3e 4d d9 84 be 2f 4f ef be 6c 91 10 bf
       0.17278892 -0.25947037 -0.467401 -0.56471896
000370 d5 72 67 bf 54 f0 cd 3e 1d 0f ba be 2f 13 a1 be
       -0.90409595 0.40222418 -0.36339656 -0.31459948
000380 52 0c 73 be b9 6c 9f be 44 64 7d be 53 62 01 be
       -0.23735169 -0.31137636 -0.2474528 -0.12635164
000390 dc 48 18 bf 27 3c c4 bd ed d5 aa be 7c 5c f2 be
       -0.59486175 -0.09581786 -0.33366337 -0.47336185
0003a0 a2 a2 0c bf b3 8d 5d be 9b f5 c3 be 95 04 cb be
       -0.5493566 -0.21636085 -0.3827332 -0.39651933
0003b0 32 89 0d be c8 1d 9d be 0b b9 24 bf b6 ab 51 3d
       -0.13821867 -0.30686784 -0.64344853 0.051189147
0003c0 ed 78 8d be 2c c5 1c be cd 19 43 be ec ae 0b be
       -0.27631322 -0.1530959 -0.19052811 -0.13640946
0003d0 d4 be d1 bd db ef ff be 84 c8 89 be 12 b2 b1 bd
       -0.10241476 -0.49987683 -0.26910794 -0.08676542
0003e0 70 23 72 be 7a a2 06 be 9e 04 1e bf 3c 12 e7 3e
       -0.23646331 -0.13147917 -0.61725795 0.451311
0003f0 22 23 a3 be 01 a0 80 be 6b 18 ae be 7a 8c d8 bc
       -0.31862742 -0.25122073 -0.34003004 -0.026434172

linear2.weight f4 [3, 256]
000000 87 70 47 3d 8b c9 be be 29 34 55 be b0 40 0f bd
       0.0486913 -0.3726314 -0.20820679 -0.0349738
000010 1f d7 fb 3b fe 50 cb 3d 21 ae d4 bc 22 79 3a be
       0.0076855565 0.099275574 -0.025961937 -0.18210271
000020 c0 6d 7d bd 77 8a f4 be 2c 62 85 39 96 95 38 3e
       -0.061872244 -0.4776189 0.0002544088 0.18025813
000030 fd 13 34 bd 6d 4e 7e bc 62 08 9c 3d f4 53 21 3b
       -0.043964375 -0.015521628 0.076187864 0.002461669
000040 5d 56 c4 3a b4 74 70 be d9 4a f6 be fd 07 60 ba
       0.0014979352 -0.23482019 -0.4810398 -0.0008546112
000050 59 dd 1f 3c 94 42 ea bc c6 4c c7 be 63 7b be bd
       0.009757363 -0.0285962 -0.3892576 -0.09300878
000060 f0 b3 40 be 36 0a 60 be 96 98 ee 3e 3d ad b6 be
       -0.1881864 -0.21878895 0.4660079 -0.35679045
000070 98 83 cd b8 2d 05 8d 3e e8 0b db be c8 98 0f 3a
       -9.799673e-05 0.2754301 -0.4278252 0.0005477783
000080 b6 25 11 bf 2f ac e8 bc 1e 4b 37 3c 2c c8 2c 3e
       -0.5669817 -0.028402416 0.011187343 0.16873235
000090 dc 86 16 bd 92 80 5c bc cf 46 2f 3d d2 a8 10 3e
       -0.036749706 -0.013458388 0.042792138 0.141269
0000a0 84 6f 10 3f bd 47 c7 be dc ae 13 bd d1 a7 09 be
       0.5642016 -0.3892192 -0.03605543 -0.13442923
0000b0 2a 7f 2d bd 6a 01 28 bc 7d 25 ee 3e 9d d5 f2 be
       -0.0423576 -0.010254243 0.46512976 -0.474286
0000c0 c0 54 f8 3e f3 56 02 be 60 cb 19 3f 47 cf 95 be
       0.4850216 -0.12728481 0.6007595 -0.29259703
0000d0 4c d5 4a 3e ea 76 6b be 48 f3 79 3d 8c 2c f7 be
       0.19807929 -0.22994581 0.061023027 -0.48276174
0000e0 ca 03 b8 3c 83 87 a3 3c ec 63 0e 3f 87 a5 5d 3e
       0.022462744 0.019962078 0.5562122 0.21645175
0000f0 12 e9 85 3e 5a c3 65 bf 7a 94 e7 3e 27 81 3a be
       0.2615438 -0.8975121 0.45230466 -0.1821333
000100 79 25 7b 3d 97 a9 2a be b1 65 2c 3b 63 7f 77 bc
       0.061315034 -0.16666256 0.002630573 -0.015106055
000110 9b 45 a3 bc 44 76 a1 3e 88 49 f1 3b 83 4c ba 3c
       -0.019930651 0.31535542 0.007363502 0.022741562
000120 d0 ce 1d bc b7 47 31 bf ce 02 e7 bc 36 38 ef 3c
       -0.0096318275 -0.69250053 -0.02819958 0.029201608
000130 9c 45 1b 3a 37 c5 b2 bb b1 7e bf be 13 29 b7 ba
       0.00059231534 -0.0054556387 -0.37401345 -0.0013974033
000140 ba d4 1c bd 73 d6 1f be b4 43 43 3f 38 2e 86 3c
       -0.03828881 -0.1560915 0.7627518 0.01637946
000150 d9 c4 cb 3a f5 59 73 3e 4f c9 32 be be a8 ad 3e
       0.0015546336 0.23764785 -0.17459606 0.33917803
000160 d5 7b c6 3b 86 bc df 3c 7c 68 0b be f2 7a ff bc
       0.0060572424 0.027311575 -0.13614076 -0.031186555
000170 6d 4f f1 bb 91 f3 0a 3f 88 05 8a 3e 7f 63 c4 bb
       -0.0073642046 0.542779 0.26957345 -0.005993306
000180 2d 68 0e 3c 39 c9 ad 3e f2 46 5c bd 6a a0 4a 3c
       0.00869183 0.33942583 -0.053778596 0.012367347
000190 50 64 8d be ef 5e f6 bd 98 b3 b4 3d b5 1c 09 bc
       -0.27615595 -0.12029826 0.08823317 -0.008368661
0001a0 00 70 1e 3d f6 df 22 3d ad 27 9f 3e b8 28 6d 3d
       0.03868103 0.039764367 0.31084958 0.05790016
0001b0 8f f2 18 3c 11 de 22 bd b7 99 20 3d 75 eb e5 be
       0.009335174 -0.03976256 0.039209094 -0.44906202
0001c0 00 c0 2b ba 75 6e c6 3b 09 c8 ab bb 92 9f b2 3e
       -0.00065517426 0.006055648 -0.005242352 0.34887367
0001d0 26 74 2a 3c bf 8b ea bd 57 9a 1d be 7e 5e 8e 3d
       0.0104036685 -0.11452436 -0.15390907 0.06951617
0001e0 de 22 88 bd dd 13 1c 3b 63 82 cd be 4c 60 8d 3e
       -0.066472754 0.002381555 -0.4013854 0.2761253
0001f0 a9 17 c4 bc 96 38 b9 bc ba ed 0f bd ba ca 51 be
       -0.023937063 -0.02260999 -0.035138823 -0.2048749
000200 fb 0e c3 3d 2a 40 5b bd 4b 65 6f bd 31 82 88 3e
       0.09524342 -0.05352799 -0.05844621 0.26661828
000210 f6 d0 3f be 24 40 2c 3d 38 f6 83 3c 6d 9b 2e be
       -0.18732056 0.042053357 0.016108617 -0.17051478
000220 7a 77 57 bf 23 16 b9 bc f8 8d d8 3d d7 52 29 be
       -0.8416668 -0.022593563 0.105739534 -0.16535507
000230 b8 33 8e be fb 31 e7 bb 75 07 b6 be 61 cd 02 3d
       -0.27773833 -0.0070555187 -0.35552564 0.031934146
000240 56 7b ff bd dd 51 7a be ff 99 07 be 48 a2 40 3c
       -0.12474696 -0.24445291 -0.13242339 0.011757441
000250 33 e9 01 3d c0 eb 47 bd 03 1b 8a 3a 3a e9 91 be
       0.031716537 -0.048808813 0.0010536615 -0.2849825
000260 bd e4 ee bc 93 19 1d bf 52 3b 35 3e b2 43 93 bc
       -0.029161805 -0.6136715 0.1769841 -0.017976616
000270 ef 06 cd 3c 86 c3 6f bf 18 76 26 bd c3 d2 5f be
       0.02502772 -0.9365772 -0.040639967 -0.21857743
000280 51 26 88 3b ae 68 c9 bc 07 83 3a bf 3b 86 58 3d
       0.0041549583 -0.024586048 -0.7285618 0.052862387
000290 cb 70 02 3f 83 c0 1d bc 1b bc fe bd 55 ac c1 bd
       0.5095336 -0.009628418 -0.12438222 -0.09456698
0002a0 f2 18 88 be 5a 3d a7 bd 83 12 46 3d 85 1c db bb
       -0.26581532 -0.08165999 0.048357498 -0.0066867494
0002b0 00 36 6c 39 cb f8 23 bd df 87 42 3e e0 43 b8 3d
       0.0002252683 -0.04003219 0.18997143 0.08997321
0002c0 88 7d 9f be 77 fc a9 3e 94 ee 83 bd 44 89 00 bb
       -0.3115046 0.33200428 -0.064419895 -0.0019613067
0002d0 d6 97 0a 3c f6 18 52 3c 35 a8 a6 3b 89 c2 a2 3d
       0.008459052 0.012823334 0.00508597 0.07947261
0002e0 95 8a a0 be 87 40 38 bb f7 50 e0 be 5a c9 34 be
       -0.3135573 -0.0028114633 -0.4381177 -0.17654935
0002f0 75 1c ab bd ba 03 95 bb 21 b0 21 3c ec 6d 24 3d
       -0.08355037 -0.0045475634 0.009868653 0.040143892
000300 97 6d 95 bc 31 9b 18 bd f4 2b 0f be c5 ff 12 bc
       -0.018240733 -0.037257377 -0.1398161 -0.008972113
000310 2d f7 4b bf 41 1b 40 bc 77 fb 97 be e2 59 ac be
       -0.79674035 -0.011725248 -0.2968404 -0.33662325
000320 97 4b fb bc 60 0b e9 3e 03 24 3a be 4b 79 04 3c
       -0.030675692 0.4551649 -0.181778 0.008085559
000330 ce 8b 91 be e0 dd 83 3e 71 19 12 3e ff de 4b bd
       -0.28426975 0.25755215 0.14267518 -0.049773213
000340 c9 11 22 bf 99 52 55 3c 51 87 8f bc b9 04 b2 3c
       -0.6330839 0.013020181 -0.017520579 0.021730768
000350 0e 95 81 bc ad e5 46 3e d6 60 ce be 10 04 ce 3b
       -0.015818145 0.19423552 -0.40308255 0.0062871054
000360 b4 33 8b 3c c4 40 5b 3b 17 0c fe 3b 08 1d d9 3a
       0.016992427 0.0033455351 0.007752906 0.0016564438
000370 29 80 35 3e 27 7b 08 3f b0 d4 9c be fa 2d 20 be
       0.1772467 0.53312916 -0.30631018 -0.15642539
000380 6c 17 a0 b9 79 32 05 bf 0d ef 7b bf 72 bf 15 3c
       -0.0003053503 -0.5203014 -0.9841164 0.009139882
000390 e8 f7 44 3d 56 13 f3 bc eb 25 a0 3b cb 01 b1 be
       0.048087984 -0.029672306 0.0048873327 -0.3457168
0003a0 74 f9 f2 bd 0a eb 45 bc 8e d7 40 bf c6 5a 4a be
       -0.11863986 -0.012079963 -0.7532891 -0.1976119
0003b0 07 2c 38 3c a8 c5 82 be b0 8d 74 3d 53 af e2 3e
       0.011240966 -0.25541425 0.059705436 0.44274387
0003c0 43 f5 ac bb 8d 92 c0 be 76 88 3d 3c 72 72 92 3c
       -0.005278261 -0.3761181 0.011568179 0.017876837
0003d0 ce b4 c9 be 1c ea 31 be a7 b9 0f 3c ab 62 59 bb
       -0.39395756 -0.17374462 0.00877229 -0.0033170383
0003e0 38 08 82 be fe b5 9e bd 61 25 a7 3d a7 98 b6 3e
       -0.25396895 -0.07749556 0.08161426 0.3566334
0003f0 e0 1b aa be 7e 56 6d be 0c 27 d2 bd d1 26 ac bd
       -0.33224392 -0.23177525 -0.10261354 -0.08405841

linear2.bias f4 [3]
000000 e7 71 33 3f 10 40 8d 3d 60 9d 27 3d
       0.70095676 0.068969846 0.04092157
